…
localhost:8080/"},"id":"aCgPTd3u0jZJ","executionInfo":{"status":"ok","timestamp":1717044401894,"user_tz":-330,"elapsed":394,"user":{"displayName":"Ganapathy Bala.R","userId":"09377560494626485737"}},"outputId":"7d5957d1-2f4f-4b5f-ed60-56c6b9e3b651"},"execution_count":null,"outputs":[{"output_type":"stream","name":"stdout","text":["Model: \"sequential_1\"\n","_________________________________________________________________\n"," Layer (type)                Output Shape              Param #   \n","=================================================================\n"," lstm_3 (LSTM)               (None, 3, 50)             11800     \n","                                                                 \n"," dropout_3 (Dropout)         (None, 3, 50)             0         \n","                                                                 \n"," lstm_4 (LSTM)               (None, 3, 50)             20200     \n","                                                                 \n"," dropout_4 (Dropout)         (None, 3, 50)             0         \n","                                                                 \n"," lstm_5 (LSTM)               (None, 50)                20200     \n","                                                                 \n"," dropout_5 (Dropout)         (None, 50)                0         \n","                                                                 \n"," dense_1 (Dense)             (None, 1)                 51        \n","                                                                 \n","=================================================================\n","Total params: 52251 (204.11 KB)\n","Trainable params: 52251 (204.11 KB)\n","Non-trainable params: 0 (0.00 Byte)\n","_________________________________________________________________\n"]}]},{"cell_type":"code","source":["from sklearn.model_selectio
…
